conv_denoiser.pt (torch, 59573 bytes, 74 tensors)

encoder.0.weight f4 [32, 1, 3, 3]
0	0x3e6d0962	0.2314811
1	0x3ebb9572	0.36637455
2	0x3e23f040	0.16009617
3	0x3e3d7516	0.18501696
4	0x3e31a32b	0.173474
5	0x3da566ea	0.0807627
6	0x3d79e455	0.06100877
7	0x3d0966bc	0.03354524
8	0xbce28c53	-0.027654802
9	0x3e275193	0.16339712
10	0x3e274529	0.16334976
11	0x3c1745d6	0.009232959
12	0xbf09a289	-0.53763634
13	0x3ebc4a4f	0.36775443
14	0x3d8afedc	0.06786892
15	0x3ea86f6a	0.32897502
16	0x3e343400	0.17597961
17	0x3ba26002	0.0049552927
18	0xbc9eac79	-0.01936935
19	0xbd0a4dce	-0.033765607
20	0xbce59de2	-0.028029386
21	0xbd00a3e3	-0.031406295
22	0x3f2c4bc3	0.67303103
23	0xbceb5f97	-0.028732104
24	0xbcd45ce5	-0.025923202
25	0xbcf6fab1	-0.030148836
26	0xbccf316d	-0.025292123
27	0x3db32a2f	0.0874828
28	0x3e2f4015	0.17114289
29	0x3e0aec37	0.13566671
30	0x3e2c00af	0.16797136
31	0x3e87e19b	0.2653931
32	0x3e328926	0.1743513
33	0x3de9a96a	0.11409266
34	0x3e1d8e37	0.15386282
35	0x3d702f66	0.058638953
36	0x3bd0c0e5	0.006370651
37	0x3c3c94ab	0.011510055
38	0x3c0bff60	0.008544773
39	0x3ccfedae	0.02538189
40	0x3d2be176	0.041963063
41	0x3cb10ad5	0.02161161
42	0x3d6c8f3e	0.057753794
43	0xc06107e3	-3.5161064
44	0x3c8b0283	0.016968971
45	0x3e4b8680	0.19875526
46	0xbc07683f	-0.0082646
47	0xbee3a4ec	-0.44461763
48	0x3e84ae89	0.2591441
49	0x3df804b9	0.12110276
50	0xbea60b29	-0.3243039
51	0x3e72ad33	0.23698883
52	0x3e1d0e63	0.1533752
53	0x3d27e65e	0.04099118
54	0x3e4f7ddb	0.20262854
55	0x3e2bd431	0.16780163
56	0x3e0cd8c3	0.13754563
57	0x3ebc6430	0.36795187
58	0xbe172170	-0.14758849
59	0x3d956462	0.07294537
60	0x3e87f00e	0.26550335
61	0x3ded0437	0.115730695
62	0x3da3d5d6	0.0799977
63	0x3e59eeb1	0.2128246
64	0x3e8cd69b	0.2750748
65	0x3e692a17	0.22769962
66	0x3e86f690	0.26359987
67	0x3e928f3f	0.28624913
68	0x3e861508	0.2618792
69	0x3e6f5b4d	0.23374672
70	0x3e83b57c	0.257244
71	0x3e68fdf8	0.22753131
72	0x3e1035cb	0.1408302
73	0x3d66742e	0.05626314
74	0xbe866505	-0.26248947
75	0x3e22fcd0	0.15916753
76	0x3d242465	0.04007377
77	0xbf13840e	-0.57623374
78	0x3d7b138b	0.061297935
79	0xbe5c56c9	-0.21517481
80	0xbf0d0744	-0.5508921
81	0xbaf25b73	-0.0018490389
82	0x3b3c629e	0.0028745304
83	0x3c0d9aeb	0.008642892
84	0x3c2713ea	0.010197619
85	0x3d787972	0.060662694
86	0x3dbbc8fd	0.09169195
87	0x3d09e9f1	0.03367037
88	0x3e23d1f4	0.1599806
89	0x3f26793e	0.6502875
90	0xbee0ea81	-0.43928912
91	0xbedd1bd8	-0.43185306
92	0xbeb964a5	-0.36209598
93	0x3e6ff759	0.234342
94	0x3d4709d8	0.048593372
95	0xbe97ac69	-0.29623726
96	0x3ea9d636	0.33171242
97	0x3d70684f	0.058693226
98	0xbe8a5b1b	-0.27022633
99	0xbf696294	-0.91166043
100	0x3e65043d	0.22364898
101	0x3e42a520	0.19008303
102	0xbe57cf5d	-0.21075197
103	0x3e5dda06	0.216652
104	0x3e403764	0.1877113
105	0xbe923e67	-0.28563234
106	0x3c27e31b	0.010247017
107	0xbacf1a1e	-0.001580063
108	0xbc0097b6	-0.007848671
109	0xbe241ce1	-0.16026641
110	0xbd801719	-0.062544055
111	0xbd9c36bd	-0.07627628
112	0xbf646f8f	-0.89232725
113	0xbdaa627e	-0.08319567
114	0xbd2406af	-0.040045436
115	0xbd58d36d	-0.052936006
116	0x3b8647a1	0.0040978943
117	0x3e3fd2e0	0.18732786
118	0xbd50f72e	-0.05101698
119	0xbf036668	-0.51328135
120	0x3eb442d6	0.35207242
121	0x3e8b6f51	0.27233365
122	0x3db8d6a5	0.09025315
123	0x3e9eef30	0.3104186
124	0x3e9e3b6a	0.30904704
125	0x3cb2d684	0.021830805
126	0x3d3fd820	0.046836972
127	0x3d1ea7df	0.038734313
128	0x3c0a7615	0.0084510045
129	0xc0e1c730	-7.055565
130	0x3d7cc73f	0.061713453
131	0x3c935604	0.017985351
132	0x3d33c654	0.043890312
133	0x3cb3df49	0.021957057
134	0xb9a3833f	-0.0003118757
135	0x3f003b50	0.50090504
136	0xbecb027c	-0.39650333
137	0x3eb878f9	0.36029795
138	0x3eb44c46	0.35214442
139	0x3d3f9a80	0.046778202
140	0x3e3e827a	0.1860446
141	0x3e2efaef	0.17087911
142	0xbdd92fd2	-0.10604824
143	0xbd633764	-0.055472746
144	0xbed34d4e	-0.41269916
145	0xbe71c086	-0.23608598
146	0xbd94184a	-0.07231195
147	0xbd88f9b6	-0.066882536
148	0x3d828797	0.06373518
149	0xbf1a634a	-0.60307753
150	0xbe076371	-0.13221528
151	0x3da9aa3b	0.08284422
152	0xbd1f9cff	-0.038968083
153	0xbdc0fbf6	-0.09423058
154	0xbe12f3aa	-0.14350763
155	0xbe24021d	-0.16016431
156	0xbcb59a3e	-0.022168275
157	0x3eb664c5	0.35623756
158	0x3e36bfac	0.17846555
159	0xbd7f6d54	-0.062360123
160	0x3f04280b	0.516236
161	0xbeda38f2	-0.4262157
162	0xbeb77e7b	-0.35838684
163	0x3d85bcbc	0.06530139
164	0xbf935bd7	-1.1512402
165	0x3d1a724a	0.03770665
166	0x3e72bbea	0.23704496
167	0x3dcd7dd3	0.10033765
168	0xbdf60460	-0.12012553
169	0xbc85349f	-0.016260443
170	0xbd6e43bb	-0.05817006
171	0x3e7e3100	0.2482338
172	0x3dbf9797	0.09355085
173	0xbecdb0a6	-0.40173835
174	0x3e21bfd0	0.15795827
175	0x3c94e542	0.018175725
176	0xbec39b6d	-0.38204518
177	0xbe3d3dce	-0.18480608
178	0xbea8ce08	-0.3296969
179	0xbea58ed5	-0.32335535
180	0xbeed50c5	-0.46350685
181	0x3e43b763	0.19112925
182	0x3d0a55ea	0.03377334
183	0x3efd02c2	0.49416167
184	0x3e80be6b	0.25145277
185	0xbd609f50	-0.054839432
186	0x3eb6010a	0.35547668
187	0x3bb613df	0.005556568
188	0xbdb69bd2	-0.08916439
189	0x3e3668ac	0.17813367
190	0x3e550480	0.20802498
191	0x3dc88dee	0.09792696
192	0x3d6fe22c	0.058565304
193	0x3dc7b00e	0.09750377
194	0x3d97f46b	0.07419666
195	0xbfbf0aee	-1.492521
196	0xbe1b4fe4	-0.15167195
197	0xbd8a851b	-0.06763669
198	0xbe694fdf	-0.22784375
199	0xbebadfbe	-0.36498827
200	0xbe8dd20e	-0.27699322
201	0xbe50d4e7	-0.20393716
202	0xbc9f13f2	-0.01941869
203	0xbe278bbe	-0.16361901
204	0xbe60f011	-0.21966578
205	0x3eae7d07	0.34079763
206	0xbea7bde7	-0.32762071
207	0xbe769b2c	-0.24082631
208	0xbe7b7d8d	-0.24559613
209	0x3eb77fa1	0.3583956
210	0xbe783d8b	-0.24242227
211	0xbd9d0897	-0.07667654
212	0x3ebb3f61	0.36571792
213	0xbd3709f3	-0.044687223
214	0x3e09a82e	0.13443062
215	0x3e8440f4	0.25830805
216	0xbbd06340	-0.006359488
217	0x3cdf9180	0.02729106
218	0xbe3134f3	-0.17305355
219	0xbe43fd88	-0.19139683
220	0x3ce4b170	0.02791664
221	0xbd4e0208	-0.050294906
222	0xbe047913	-0.12936811
223	0x3cc55cb0	0.024092048
224	0xbdfe14dc	-0.12406322
225	0x3c3b1a2d	0.011419815
226	0x3e490ddf	0.19634198
227	0x3e634fc8	0.22198403
228	0x3d3982fb	0.04529093
229	0x3e82c2ca	0.25539237
230	0x3edbb0da	0.42908365
231	0x3cb6186a	0.022228438
232	0x3e1c626e	0.15271923
233	0x3de306be	0.1108527
234	0xbf1c1ab8	-0.6097827
235	0xbf222291	-0.63333994
236	0xbe1b88a7	-0.15188847
237	0x3dbba742	0.09162761
238	0x3e2066fe	0.15664288
239	0x3e0feda5	0.14055498
240	0x3e386ece	0.18011019
241	0x3e43779d	0.19088598
242	0x3d22dfbc	0.03976415
243	0xbe453147	-0.19257079
244	0xbd5a244a	-0.053257264
245	0xbdd516f0	-0.104047656
246	0xbe936164	-0.2878524
247	0xbe3b7013	-0.18304472
248	0xbe41a4a8	-0.18910468
249	0x3e3aac21	0.18229724
250	0xbe5e2f42	-0.21697715
251	0xbcc193cc	-0.023630045
252	0x3e80fe47	0.25193998
253	0x3e9f29d6	0.31086606
254	0x3ec2569e	0.3795671
255	0xbebbfd46	-0.3671667

encoder.0.bias f4 [32]
0	0xbf13bb3d	-0.5770758
1	0x3f22e28b	0.6362693
2	0xbf082dee	-0.53195083
3	0xbf53f1c3	-0.82790774
4	0x3c09a1cf	0.008400395
5	0xbed6b652	-0.41935974
6	0xbf2236b5	-0.63364726
7	0x3de66348	0.11249405
8	0x3f535809	0.82556206
9	0xbf11d538	-0.5696597
10	0x3e1edd86	0.15514192
11	0x3f0b07c5	0.5430873
12	0x3f2a8bc5	0.6661952
13	0x3f1b42e1	0.60648924
14	0xbc1e7bc9	-0.009673067
15	0x3f140789	0.57824
16	0x3f933219	1.1499664
17	0x3f095067	0.5363831
18	0x3ea9a140	0.33130836
19	0x3df1de91	0.11810029
20	0x3effffe8	0.49999928
21	0x3e71aadf	0.23600338
22	0x3e54b06d	0.20770426
23	0xbee8bcb5	-0.45456472
24	0xbdcf841c	-0.1013262
25	0xbf271283	-0.6526262
26	0x3e543001	0.20721437
27	0xbe3b9ae2	-0.18320802
28	0x3eb91402	0.36148077
29	0xbea9f8d4	-0.33197653
30	0xbf250c48	-0.64471865
31	0xbf3365ba	-0.700771

encoder.2.weight f4 [32]
0	0x3f8865a2	1.0656016
1	0x3e9fd07c	0.31213748
2	0x3ec9664f	0.39335868
3	0x3fae932d	1.3638664
4	0x3e6c5dcd	0.23082657
5	0x3e856451	0.26053098
6	0x3ee314cf	0.44351813
7	0x3f62f5f5	0.8865655
8	0x3efec6f8	0.49761176
9	0x3f074985	0.52846557
10	0x3e85ce7f	0.26134107
11	0x3eaaabf0	0.33334303
12	0x3f240294	0.64066434
13	0x3ec24ff1	0.37951615
14	0x3e7e78e8	0.2485081
15	0x3ea90c9a	0.33017427
16	0x3e546685	0.20742233
17	0x3e8e8fa6	0.2784397
18	0x3eb730d9	0.35779455
19	0x3e96e229	0.29469422
20	0x3e9004b0	0.28128576
21	0x3e9fbbab	0.31197867
22	0x3e3f9c57	0.18711983
23	0x3e603d2e	0.21898338
24	0x3f800000	1.0
25	0x3f67e3e8	0.9058213
26	0x3ebd9227	0.37025568
27	0x3f7be7b9	0.98400456
28	0x3eae26da	0.34014016
29	0x3edbfe0e	0.42967266
30	0x3f4c0571	0.796958
31	0x3f5bc8a4	0.8585303

encoder.2.bias f4 [32]
0	0xbd8870d1	-0.06662143
1	0xbe8e2ba2	-0.27767664
2	0x3cf5140c	0.029916786
3	0x3ced9fdb	0.02900689
4	0x3c04f23c	0.008114394
5	0xbe7d1a4d	-0.24717064
6	0xbf4a67a3	-0.7906439
7	0xbe118cd5	-0.1421388
8	0x3f09c219	0.53811795
9	0x3c36a1ec	0.011147004
10	0xbccf1ba4	-0.025281735
11	0xbe4c6d36	-0.19963536
12	0x3d0aec0b	0.033916514
13	0xbf2c8197	-0.6738524
14	0x3ead789f	0.3388109
15	0xbf11fe22	-0.570284
16	0x3f5e4a72	0.86832345
17	0x3e7e088e	0.24807951
18	0x3e4c32d2	0.19941261
19	0xbdc827fd	-0.09773252
20	0xbd9f7efb	-0.077878915
21	0x3e1dfc62	0.15428308
22	0xbeb7db0d	-0.3590931
23	0xbd154465	-0.03644218
24	0xc0391ab9	-2.892256
25	0xbd8eeed4	-0.069791466
26	0x3f04e904	0.51918054
27	0xc01191ce	-2.2745242
28	0xbea17411	-0.31533864
29	0x3db2c92e	0.08729778
30	0xbdbf61e0	-0.0934484
31	0xbe8989e9	-0.2686303

encoder.2.running_mean f4 [32]
0	0x3d23a8ae	0.039955787
1	0x3f556424	0.8335593
2	0x3b6b13a6	0.0035869866
3	0x3c47f6d0	0.012204841
4	0x3cb41f29	0.021987515
5	0x3c084413	0.008317011
6	0x3ce7bebb	0.02828919
7	0x3f34eb4b	0.7067153
8	0x3f0bffeb	0.54687375
9	0x3d006be1	0.03135288
10	0x3d8658ff	0.065599434
11	0x3edc2258	0.42994952
12	0x3eb776e2	0.35832888
13	0x3f5e7d59	0.86910015
14	0x3c97e9d4	0.018544115
15	0x3f5aab8e	0.8541802
16	0x3f47eacd	0.7809265
17	0x3f1502d9	0.5820747
18	0x3e332d3f	0.17497729
19	0x3d3a3224	0.045457974
20	0x3f321acf	0.69572157
21	0x3e46f7a4	0.19430405
22	0x3d384cb0	0.04499501
23	0x3c2c1b6b	0.010504584
24	0x00000000	0.0
25	0x3d3ee45e	0.046604507
26	0x3e268095	0.16259988
27	0x00000004	6e-45
28	0x3ef8047b	0.48440918
29	0x3b8aefc7	0.0042400095
30	0x3c53dec4	0.012931529
31	0x3d5275c4	0.05138184

encoder.2.running_var f4 [32]
0	0x3c563080	0.013073087
1	0x3d87022d	0.06592212
2	0x398f2f32	0.0002731025
3	0x3b30003b	0.0026855606
4	0x3a75ffa9	0.00093841046
5	0x3af24125	0.0018482549
6	0x3c0553c9	0.008137652
7	0x3e30ee15	0.17278321
8	0x3db5f93e	0.0888543
9	0x3bf7aa3a	0.0075581344
10	0x3c56619d	0.013084796
11	0x3da0084d	0.07814083
12	0x3d6cb3d3	0.05778868
13	0x3dc1ad60	0.09456897
14	0x3a79237a	0.00095038826
15	0x3db6b840	0.08921862
16	0x3dc39369	0.09549601
17	0x3d6da91a	0.058022596
18	0x3cf7a215	0.030228654
19	0x3bf34ffd	0.007425307
20	0x3d9e3fdf	0.07727026
21	0x3d125e1f	0.035734292
22	0x3bfd216e	0.0077249324
23	0x3b287387	0.0025703625
24	0x00000004	6e-45
25	0x3c8ef449	0.017450469
26	0x3cfc8d45	0.030829081
27	0x00000004	6e-45
28	0x3d5a238a	0.05325655
29	0x3a0263ee	0.0004973997
30	0x3b102692	0.0021995646
31	0x3cace2f4	0.021104313

encoder.4.weight f4 [16, 32, 3, 3]
0	0x3db6c2d3	0.089238785
1	0x3cd0c33c	0.02548372
2	0x3e6c4898	0.23074567
3	0x3da6d97e	0.08146952
4	0xbcff3ff1	-0.03115842
5	0x3e8754f6	0.26432008
6	0xbe7e5b64	-0.2483955
7	0xbd23511f	-0.039872285
8	0x3e3928a1	0.18081905
9	0x3d476db2	0.048688598
10	0xbd3fe55f	-0.046849605
11	0x3c67e1f7	0.014152995
12	0xbcef52b5	-0.029214242
13	0xbea0a3aa	-0.31374866
14	0x3e02b3ed	0.12763949
15	0x3e95ea0d	0.2928013
16	0x3e10c524	0.14137703
17	0x3eeaee58	0.45884967
18	0x3cd90aa2	0.026494328
19	0x3c7bcf37	0.015369228
20	0x3ee366a1	0.44414237
21	0x3991b9ff	0.00027795133
22	0xbe3dbae8	-0.1852833
23	0x3ef3b973	0.47602424
24	0xbb3106d7	-0.0027012134
25	0xbda05340	-0.07828379
26	0x3e250751	0.16116072
27	0xbc9a8f19	-0.018867062
28	0xbd9561bd	-0.07294033
29	0xbe950477	-0.2910497
30	0x3d9b60ff	0.0758686
31	0xbe58b000	-0.21160889
32	0xbeaf63de	-0.3425588
33	0x3dab72ce	0.08371507
34	0xbe3a8430	-0.18214488
35	0xbe414ab8	-0.18876159
36	0xbd829ed2	-0.06377949
37	0x3e6a4ef4	0.2288168
38	0xbe98eb9a	-0.2986725
39	0x3dc87d4c	0.097895235
40	0x3ec9a9a2	0.39387232
41	0xbeb14e9d	-0.3463029
42	0xbe09cebd	-0.1345777
43	0xbddcaca0	-0.10775113
44	0xbe336e00	-0.1752243
45	0xbcdb4ffb	-0.026771536
46	0x3dd572e2	0.10422303
47	0x3e3b7b26	0.18308696
48	0xbd95ded7	-0.07317894
49	0xbf0c84f0	-0.54890347
50	0x3d26c86e	0.04071849
51	0x3cb637ad	0.022243345
52	0xbd81ccea	-0.063379124
53	0x3e168da9	0.14702477
54	0x3d81bebd	0.063352086
55	0xbdadd8ea	-0.08488639
56	0xbd99dfef	-0.07513415
57	0x3d1474a6	0.036244057
58	0xbe18333d	-0.14863296
59	0x3d254c1d	0.04035579
60	0x3e42a29f	0.19007348
61	0x3d47e2b7	0.048800196
62	0x3e0265bb	0.1273412
63	0xbda14227	-0.07873946
64	0x3daa3ebe	0.083127484
65	0x3ea965a5	0.3308536
66	0x3cc3be5f	0.023894487
67	0x3efc92ce	0.49330753
68	0x3e4dc2bd	0.20093818
69	0xbd84a6dd	-0.06477139
70	0x3e20db9a	0.15708771
71	0xbc372324	-0.011177812
72	0xbe89760e	-0.2684788
73	0x3df4170c	0.11918458
74	0xbe5959ee	-0.21225712
75	0x3ee346f3	0.44390067
76	0xbb68ec34	-0.0035541179
77	0xbe918367	-0.28420565
78	0x3da0fcb3	0.078606986
79	0xbe98649b	-0.29764256
80	0x3c75c916	0.015001556
81	0x3b074133	0.0020638227
82	0x3e05128f	0.12995361
83	0x3e55f456	0.20893988
84	0xbea14588	-0.3149836
85	0x3dbc5299	0.09195442
86	0x3e412f08	0.18865597
87	0x3e578fd6	0.21050963
88	0x3e35e8a8	0.17764533
89	0x3d5f25dd	0.05447947
90	0xbd3e0ca7	-0.046398785
91	0x3e90f6fa	0.28313428
92	0xbd0163da	-0.031589366
93	0xbda81019	-0.082061954
94	0x3d908f42	0.07058574
95	0x3b817747	0.0039509865
96	0xbe00b977	-0.12570749
97	0xbd4a5dd1	-0.049405877
98	0x3d9c54a4	0.076333314
99	0x3d72a398	0.059238046
100	0xbcaaf33d	-0.020867938
101	0x3e45aaca	0.19303432
102	0x3de49a2e	0.1116222
103	0xbec6ac84	-0.38803494
104	0x3c567d28	0.013091363
105	0x3bab27c3	0.005223246
106	0xbe5d4587	-0.21608554
107	0x3d6667f1	0.05625147
108	0xbd8e0d0c	-0.06936082
109	0xbd6b808c	-0.05749564
110	0xbe875848	-0.2643454
111	0x3c46da6f	0.01213704
112	0x3eec44ec	0.46146333
113	0xbeb7d3a1	-0.35903648
114	0xbdc95d7e	-0.09832285
115	0x3d46b8c1	0.04851604
116	0xbe57e725	-0.21084268
117	0x3e8d2a81	0.2757149
118	0x3d071ee4	0.032988444
119	0xbe386a71	-0.18009354
120	0xbe79c3b3	-0.2439106
121	0xbec04b96	-0.37557667
122	0xbec0631a	-0.37575608
123	0x3dbdc6d5	0.0926644
124	0xbee793d4	-0.4522997
125	0xbaa09941	-0.0012252704
126	0xbd5e2153	-0.054231
127	0x3de1f952	0.11033882
128	0xbaa968f6	-0.0012924958
129	0x3e10259d	0.14076848
130	0x3e711ea1	0.2354684
131	0x3ca38814	0.019962348
132	0x3dc1a1c7	0.09454685
133	0x3e669cf6	0.22520813
134	0xbdf4a51f	-0.11945557
135	0x3dee8392	0.11646189
136	0x3e09ee4c	0.1346981
137	0xbc4a2a1a	-0.012339139
138	0xbd3ee108	-0.046601325
139	0x3dc9aefb	0.09847828
140	0x3d8832ae	0.066502914
141	0xbe863882	-0.26214987
142	0x3b94445d	0.004524751
143	0xbe542fed	-0.20721407
144	0xbe7455b7	-0.23860823
145	0xbe7ff215	-0.2499469
146	0xbd914da3	-0.07094886
147	0x3e94247b	0.28934082
148	0x3db8c472	0.09021844
149	0x3e11bdce	0.14232561
150	0xbde4eafa	-0.11177631
151	0xbdb36eb9	-0.08761353
152	0x3ec470e1	0.3836737
153	0xbe3c8c29	-0.18412842
154	0xbe4bded6	-0.19909224
155	0x3eb813b9	0.35952547
156	0xbc4fd9d8	-0.012686215
157	0xbde1354c	-0.10996494
158	0x3e8c76d8	0.2743442
159	0x3e293826	0.16525325
160	0x3dd8cdb8	0.10586113
161	0x3e49d9ff	0.19712065
162	0xbd9bd8b6	-0.07609694
163	0xbd5a4ef0	-0.053297937
164	0xbe7b8dbf	-0.2456579
165	0x3da93cd4	0.08263555
166	0xbe336343	-0.17518334
167	0xbe44a33a	-0.19202891
168	0xbe230844	-0.15921122
169	0xbea6d7e1	-0.32586578
170	0xbdbce141	-0.09222651
171	0x3dff96bd	0.12479923
172	0xbe79e1b6	-0.24402508
173	0xbdd1d3c6	-0.10245471
174	0xbde8ee20	-0.11373544
175	0x3d76918c	0.060197398
176	0xbbd99673	-0.0066402494
177	0xbb885abb	-0.0041612065
178	0x3e885414	0.26626647
179	0xbbf22904	-0.0073901433
180	0x3e7064ee	0.23476002
181	0xbe017dce	-0.12645647
182	0xbcaf8952	-0.021427784
183	0x3c52725e	0.01284465
184	0xbe8b90eb	-0.27259
185	0xbe6db37b	-0.23212998
186	0x3e2d5201	0.16925813
187	0xbda9a365	-0.08283118
188	0x3c455fe2	0.012046786
189	0xbd1653f5	-0.03670116
190	0x3eaddf83	0.33959588
191	0x3e094f58	0.13409173
192	0xbe274a1e	-0.16336867
193	0x3d9c21ff	0.07623672
194	0xbd226462	-0.039646514
195	0xbe9bb5bd	-0.30412093
196	0xbed6bb58	-0.41939807
197	0xbea1c69f	-0.31596848
198	0x3c2eb0cb	0.010662268
199	0x3e6bf628	0.2304312
200	0xbecf3190	-0.404675
201	0x3da4959c	0.08036348
202	0x3e3ebc53	0.18626527
203	0xbeb8de46	-0.3610708
204	0xbd934623	-0.07191112
205	0xbb3e801e	-0.0029068063
206	0xbd6ad930	-0.057336032
207	0xbccc9191	-0.024971755
208	0x3d2aefa9	0.041732464
209	0x3e9e64bd	0.30936232
210	0x3dfedfec	0.124450535
211	0x3e8db0ed	0.27674046
212	0x3ec135dc	0.37736404
213	0x3db08608	0.086193144
214	0x3e7fab92	0.24967793
215	0x3dd50494	0.10401264
216	0xbd2006fe	-0.03906917
217	0x3f36e354	0.71440625
218	0xbe4ac0a4	-0.19800049
219	0xbf52511d	-0.8215502
220	0xbeae06d1	-0.33989576
221	0xbf842537	-1.0323857
222	0xbf59bede	-0.85056865
223	0xbf41f28f	-0.7576074
224	0xbf837501	-1.0270082
225	0xbc369c6d	-0.011145693
226	0x3e153cac	0.14573926
227	0x3e91d668	0.2848389
228	0xbc638801	-0.013887406
229	0x3e02bf21	0.12768222
230	0x3e8f174e	0.27947468
231	0xbe3e64d0	-0.18593144
232	0x3e4793f6	0.19490036
233	0x3dad6c26	0.08467893
234	0x3ddddcda	0.1083314
235	0xbc868dbf	-0.016425012
236	0xbe005e66	-0.1253601
237	0x3d8dcf6b	0.069243275
238	0x3df01a6c	0.117237896
239	0xbdbaafcd	-0.091155626
240	0x3df03398	0.11728591
241	0x3e06bb29	0.13157333
242	0xbe73b613	-0.23799925
243	0x3d129657	0.035787906
244	0x3f39b27a	0.7253796
245	0x3d9290ac	0.071565
246	0xbf0b7b6d	-0.5448521
247	0xbe3d398a	-0.1847898
248	0xbf23b749	-0.63951546
249	0xbf1fce13	-0.6242382
250	0xbf0f6ec9	-0.5602842
251	0xbf3211a4	-0.6955817
252	0x3cec7f19	0.028869199
253	0x3c8596eb	0.016307315
254	0x3e1f5591	0.15559985
255	0x3cd3d53f	0.02585852

encoder.4.bias f4 [16]
0	0x3e6df7b4	0.23239022
1	0x3ef683c0	0.48147392
2	0xbe1a7a4d	-0.15085717
3	0x3ea7664f	0.32695243
4	0x3e48a434	0.19593889
5	0x3e8ae6cc	0.2712921
6	0xbd9d4139	-0.07678456
7	0x3f09e723	0.5386831
8	0x3df73e06	0.12072377
9	0x3c7cb710	0.015424505
10	0xbeb8ad96	-0.36069936
11	0x3dcac093	0.09900012
12	0xbc40617a	-0.01174199
13	0x3e7306b9	0.23733033
14	0x3f18bc63	0.59662455
15	0xbe19fe32	-0.15038374

encoder.6.weight f4 [16]
0	0x3f0715f5	0.5276788
1	0x3f895760	1.072979
2	0x3eee641f	0.4656076
3	0x3f0db9c4	0.5536158
4	0x3f1ab2ff	0.60429376
5	0x3fe4316b	1.7827581
6	0x3f78d7c6	0.97204244
7	0x3f9c2de9	1.2201511
8	0x3f3446f0	0.7042074
9	0x3f044315	0.5166486
10	0x3f6329e6	0.88735807
11	0x3f0d16e1	0.55113035
12	0x3f546197	0.8296141
13	0x3fedf0a3	1.8589061
14	0x3f61568b	0.8802268
15	0x3e8562de	0.26051992

encoder.6.bias f4 [16]
0	0xbd35152d	-0.044209648
1	0x3ed05d2e	0.4069609
2	0xbdd6b9a9	-0.104846306
3	0xbe34ebf4	-0.17668134
4	0xbdba8e1c	-0.091091365
5	0xbeeb9151	-0.46009305
6	0xbf828053	-1.0195411
7	0x3f110097	0.56641525
8	0xbd4e23ec	-0.050327227
9	0x3e7452c4	0.23859698
10	0xbeeb6f4b	-0.45983347
11	0xbf255422	-0.645815
12	0x3df606f8	0.12013048
13	0xbde09b1c	-0.10967085
14	0x3e2f8958	0.17142236
15	0xbd8b7c61	-0.06810833

encoder.6.running_mean f4 [16]
0	0x4186e44f	16.861479
1	0x40707f06	3.757753
2	0x3fa30773	1.2736648
3	0x41c8da00	25.106445
4	0x4187bf38	16.968369
5	0x3f900f8f	1.1254748
6	0x00000004	6e-45
7	0x404c8dfc	3.196166
8	0x41c32dc3	24.397345
9	0x3f02c58c	0.5108268
10	0x412f108a	10.941538
11	0x3f6e5cd9	0.93110424
12	0x41a65869	20.793169
13	0x400e4eb7	2.2235544
14	0x404e16bf	3.2201383
15	0x3fd23b9a	1.6424439

encoder.6.running_var f4 [16]
0	0x41faffd5	31.374918
1	0x411a5b18	9.64724
2	0x40511200	3.2667236
3	0x42067874	33.61763
4	0x41dfa544	27.955696
5	0x411f5fad	9.960858
6	0x00000004	6e-45
7	0x418b1645	17.385874
8	0x4251303d	52.297108
9	0x3fde593b	1.7370981
10	0x41a6391c	20.777885
11	0x404399ac	3.0562544
12	0x4207b385	33.925312
13	0x41982c66	19.021679
14	0x4192d35c	18.353203
15	0x4049721e	3.1475902

encoder.8.weight f4 [8, 16, 3, 3]
0	0x3d2c6182	0.04208518
1	0x3d4c2f94	0.04985006
2	0x3e097a5d	0.13425584
3	0xbe0e7605	-0.13912208
4	0x3db7c27c	0.08972642
5	0xbdcfb38a	-0.10141666
6	0xbe8f5a38	-0.2799852
7	0x3d52b993	0.05144651
8	0xbde1a36f	-0.110175006
9	0x3ef117e3	0.47088537
10	0x3e90ff49	0.28319767
11	0x3e96be45	0.2944204
12	0x3e279689	0.16366018
13	0x3e4390dc	0.19098228
14	0x3d0c4120	0.034241796
15	0x3e21636d	0.15760584
16	0x3d6e7f32	0.05822677
17	0x3c654ae1	0.013994903
18	0xbebedfb4	-0.37280047
19	0xbe56aca4	-0.20964295
20	0xbe81cd74	-0.2535206
21	0xbe2702ba	-0.16309634
22	0x3e83933d	0.2569827
23	0xbd7e2e31	-0.06205577
24	0xbcaf29f5	-0.021382311
25	0x3ca32637	0.019915683
26	0xbd72cd75	-0.05927797
27	0xbd4b117c	-0.04957722
28	0xbd7e770d	-0.062125254
29	0xbceb7100	-0.028740406
30	0x3ea47499	0.32120207
31	0x3e895cfa	0.26828748
32	0xbd9c6227	-0.076359086
33	0xbc9e922d	-0.019356811
34	0xbcdca95f	-0.026936231
35	0xbe865fec	-0.26245058
36	0xbab7d439	-0.0014025039
37	0xbd8154bc	-0.0631499
38	0x3dbca622	0.09211375
39	0x3ef32004	0.47485363
40	0xbc19c802	-0.0093860645
41	0x3d30fa9c	0.04320775
42	0x3df7f194	0.12106624
43	0xbdad77a4	-0.08470085
44	0xbd3286d7	-0.043585625
45	0x3dbf9f5d	0.09356568
46	0x3eb6459c	0.35599983
47	0x3ec9d6bc	0.39421642
48	0x3dfde7d0	0.1239773
49	0x3e78b198	0.24286497
50	0x3e89f031	0.26941064
51	0xbce2d71e	-0.027690466
52	0x3d7cc29d	0.061709035
53	0x3e091f98	0.13390958
54	0x3da0154d	0.07816563
55	0xbe3d5cad	-0.18492384
56	0x3e8c489a	0.2739914
57	0xbeedaf0e	-0.4642262
58	0xbfac1936	-1.3445194
59	0xbdbac44f	-0.09119474
60	0x3e796f32	0.24358824
61	0x3e192c5a	0.14958325
62	0x3e8e0e9a	0.27745515
63	0x3ea3fb57	0.32027695
64	0x3e445f54	0.1917699
65	0x3e8206d4	0.25395834
66	0x3e8c4979	0.27399805
67	0x3daf047a	0.08545776
68	0x3cc80d53	0.024420416
69	0x3e56f675	0.20992453
70	0x3b5db09a	0.0033827187
71	0x3c0c6d62	0.008571001
72	0x3e4ba1d8	0.19885957
73	0xbcf8b7b2	-0.03036103
74	0x3e19b88a	0.15011802
75	0x3d37964e	0.044821076
76	0xbbf25468	-0.007395316
77	0x3ca5d0bb	0.020241132
78	0x3d5807e0	0.052741885
79	0xbc2fdf3b	-0.010734375
80	0xbd1634ae	-0.036671333
81	0x3eb3eb54	0.3514048
82	0x3e276d86	0.16350374
83	0x3d9400ed	0.07226739
84	0x3e91833a	0.2842043
85	0x3e0fd405	0.14045723
86	0x3cbb2e29	0.02284916
87	0x3eb62f42	0.3558293
88	0x3d70bb25	0.058772225
89	0x3c52fc55	0.012877543
90	0xbecb4a9c	-0.3970536
91	0xbe6bcc89	-0.23027243
92	0xbe810667	-0.25200197
93	0xbe757385	-0.23969848
94	0x3ab1685a	0.0013535128
95	0xbd9d6a2f	-0.076862685
96	0xbda00468	-0.078133404
97	0xbd8adac8	-0.067800105
98	0xbd8d6391	-0.069037564
99	0xbdb4ee91	-0.088345654
100	0x3dba63b6	0.091010496
101	0x3cf13199	0.029442595
102	0x3e00b840	0.12570286
103	0x3db9922e	0.09061085
104	0x3c5a09a7	0.013307965
105	0xbe0483db	-0.12940924
106	0x3d99c945	0.07509092
107	0x3e653629	0.22383942
108	0xbe808904	-0.25104535
109	0x3d58aacf	0.05289727
110	0xbda2f6e4	-0.07957247
111	0xbc9caea2	-0.01912624
112	0xbe7ad86a	-0.24496618
113	0xbdb57f2c	-0.08862147
114	0xbd96727d	-0.07346056
115	0xbc637198	-0.013882063
116	0xbe569005	-0.20953377
117	0x3e2bf70f	0.16793464
118	0xbcdbc359	-0.026826547
119	0x3d2ae96d	0.04172652
120	0x3e9ffea9	0.31248978
121	0x3e4fa213	0.2027667
122	0x3e2b8b9d	0.16752477
123	0x3ee9751c	0.4559716
124	0x3e3ffe12	0.18749264
125	0x3e7dee77	0.24797998
126	0xbd0f3ad3	-0.03496821
127	0x3e22031c	0.15821499
128	0x3ea21f40	0.31664467
129	0xbd9a9a96	-0.07549016
130	0xbc1837b6	-0.009290626
131	0x3df30bb1	0.11867464
132	0xbc1c26eb	-0.009530763
133	0xbaef9f2b	-0.0018281689
134	0x3e1d8f64	0.1538673
135	0x3e0c3671	0.13692643
136	0x3e4f86df	0.20266293
137	0x3e2c1692	0.16805485
138	0x3e71ef06	0.23626336
139	0xbbe5ec2d	-0.0070166797
140	0xbd2c5ecf	-0.042082604
141	0x3cf268bf	0.029590962
142	0xbd5bfa0a	-0.053705253
143	0xbd6b7dad	-0.0574929
144	0x3d9d7699	0.07688636
145	0x3e74255b	0.23842375
146	0xbe75726b	-0.23969428
147	0x3ea8ae27	0.32945368
148	0xbd5dcd9b	-0.05415116
149	0x3e856503	0.26053628
150	0x3e2a5617	0.16634403
151	0xbeb9d21a	-0.36293107
152	0xbe387a15	-0.1801532
153	0xbdc9efd3	-0.09860196
154	0xbdde6fbf	-0.108611576
155	0xbd3599bf	-0.044336077
156	0xbb9365bd	-0.004498212
157	0x399ce9f5	0.0002992895
158	0xbd89c9fa	-0.06727977
159	0x3b8eacf0	0.004354112
160	0x3daf3194	0.08554378
161	0x3e00aee1	0.12566711
162	0x3e27aca8	0.16374457
163	0x3e59c181	0.21265222
164	0x3e1d3f3d	0.15356155
165	0xba4a6b2b	-0.0007721658
166	0x3e1ab214	0.15106994
167	0x3e3b609e	0.18298575
168	0xbcdfb6a0	-0.027308762
169	0xbe30edd0	-0.17278218
170	0xbd0bb208	-0.03410533
171	0x3cd9e6d7	0.02659933
172	0x3d45bcec	0.048275873
173	0x3d1da96d	0.038491655
174	0xbd21f3f4	-0.039539292
175	0xbbe39963	-0.0069457754
176	0xbe699096	-0.22809061
177	0x3cea396c	0.028591834
178	0xbee4d8f2	-0.44696766
179	0xbe46669b	-0.19375078
180	0xbdb8ddd5	-0.09026686
181	0x3d49496a	0.04914228
182	0x3d8a9bdf	0.06768011
183	0xbe079f8e	-0.13244459
184	0xbed44cc8	-0.4146483
185	0xbea024d8	-0.3127811
186	0xbe18904f	-0.148988
187	0x3e263728	0.16231978
188	0x3ceebe22	0.029143397
189	0xbdbefb7c	-0.093253106
190	0x3c50800c	0.012725841
191	0xbe804e21	-0.25059608
192	0xbd390430	-0.04517001
193	0xbd074a2a	-0.033029713
194	0xbd72eb35	-0.059306342
195	0x3d3a7339	0.04552004
196	0xbd040965	-0.03223552
197	0xbe0fc918	-0.14041555
198	0xbe2ce4a9	-0.16884102
199	0xbf12d5dc	-0.57357574
200	0xbe9a5b25	-0.30147663
201	0x3d83cc84	0.06435493
202	0xbfc8a39f	-1.5674933
203	0xbebe6e48	-0.37193513
204	0xbd9e0a4b	-0.07716807
205	0xbf7c3afb	-0.985275
206	0xbdb8c7e4	-0.09022501
207	0xbe58eb47	-0.21183501
208	0xbd1bb04f	-0.038009938
209	0xbdf981f7	-0.12182992
210	0xbd3a2a9e	-0.0454508
211	0xbe0a9750	-0.13534284
212	0xbd132beb	-0.035930555
213	0x3d1bdb88	0.03805116
214	0xbe92c346	-0.28664607
215	0xbe3b828b	-0.18311517
216	0x3e6ac345	0.22926052
217	0x3d6aab0a	0.05729202
218	0xbd8fd979	-0.070239015
219	0x3e1f0b89	0.15531744
220	0x3e9984f4	0.29984248
221	0xbe276530	-0.16347194
222	0xbd9f4ac3	-0.077779315
223	0xbd2ec620	-0.042669415
224	0xbe85aeff	-0.26110074
225	0xbbeb730e	-0.0071853464
226	0x3c8a5051	0.016884001
227	0xbd195cd7	-0.037442055
228	0x38d56338	0.000101751124
229	0xbce9968c	-0.02851417
230	0x3d2cd8cf	0.042198952
231	0xbd9c2bae	-0.07625519
232	0x3da802a8	0.08203632
233	0xbd654ef3	-0.055983495
234	0x3e03a721	0.12856723
235	0x3d12e8a4	0.035866395
236	0x3dd0190f	0.101610295
237	0x3d011a10	0.031518996
238	0xbbfeca56	-0.007775585
239	0xbd54408c	-0.05181937
240	0x3d3c4bc3	0.04597069
241	0x3ea796d0	0.32732248
242	0x3eb349a1	0.35017112
243	0xbe6126aa	-0.21987405
244	0x3da75b51	0.08171714
245	0xbd9a4bdb	-0.075339995
246	0x3cc31f84	0.023818739
247	0x3ed97019	0.42468336
248	0x3edb0b78	0.42782187
249	0xbe14b70f	-0.14522956
250	0xbd4bdd35	-0.049771506
251	0xbe9831b9	-0.29725435
252	0xbce76bd5	-0.02824966
253	0xbdf50c74	-0.11965266
254	0xbeb9121c	-0.3614663
255	0x3c005ed5	0.00783511

encoder.8.bias f4 [8]
0	0x3fc8b24c	1.5679412
1	0x3fae68a9	1.362569
2	0x3ebfb384	0.37441647
3	0x3f4e8165	0.8066619
4	0x3f82fc50	1.023325
5	0x3eb80346	0.35939997
6	0x3f4115fb	0.75424165
7	0x3e880455	0.26565805

encoder.10.weight f4 [8]
0	0x3f7563e9	0.95855576
1	0x3ebe8687	0.3721201
2	0x3f009f7e	0.50243366
3	0x3f6c6bc4	0.9235194
4	0x3f884952	1.0647376
5	0x3f824845	1.0178305
6	0x3f7e0ad1	0.99235255
7	0x3f8f29b3	1.11846

encoder.10.bias f4 [8]
0	0xbeec7043	-0.461794
1	0xbef9a188	-0.4875605
2	0x3d971c7a	0.07378478
3	0x3d82a921	0.06379915
4	0xbe88820c	-0.26661718
5	0x3b153af6	0.002277074
6	0xbf281ab6	-0.6566576
7	0xbc88ec04	-0.016714104

encoder.10.running_mean f4 [8]
0	0x4100f5a1	8.059968
1	0x404af3ef	3.1711385
2	0x40eb8d97	7.361034
3	0x40f541c0	7.664276
4	0x40f3ecf6	7.622676
5	0x40d8d1e1	6.77562
6	0x41029781	8.161988
7	0x40d7a2c5	6.7386193

encoder.10.running_var f4 [8]
0	0x4195eb5b	18.73992
1	0x4085fe9a	4.1873293
2	0x413598d9	11.349816
3	0x41965d6b	18.795614
4	0x41ae7e62	21.81171
5	0x419c6ac7	19.552137
6	0x41a76ad8	20.92717
7	0x41aa6025	21.296946

decoder.0.weight f4 [8, 8, 3, 3]
0	0x3dc3f106	0.09567456
1	0xbdee9e00	-0.1165123
2	0xbe5b823c	-0.21436399
3	0x3ee2d6ee	0.44304603
4	0xbe1df042	-0.15423682
5	0xbdb26a09	-0.08711631
6	0xbd8b7ad1	-0.06810535
7	0xbe1b40f1	-0.15161492
8	0xbdff2173	-0.12457552
9	0xbccc5b37	-0.024945838
10	0xbd249ada	-0.04018674
11	0xbc728dd6	-0.014804324
12	0xbd96c208	-0.07361227
13	0xbde2dc7c	-0.1107721
14	0xbda4cfc7	-0.08047443
15	0xbcb38bbd	-0.021917218
16	0xbb09c5bd	-0.0021022402
17	0x3d8464a7	0.064645104
18	0xbdf5bf72	-0.11999406
19	0x3cd7091a	0.026249457
20	0xbd449f63	-0.048003566
21	0x3de6fb08	0.11278349
22	0x3e0ecde5	0.1394573
23	0x3e2230e5	0.15838964
24	0xbe4a272e	-0.19741508
25	0x3d8c2cb3	0.06844463
26	0x3cea2395	0.02858142
27	0xbdb03384	-0.08603576
28	0xbde7c039	-0.113159604
29	0x3da4c6d3	0.08045735
30	0x3ea47900	0.32123566
31	0x3f04f55a	0.51936877
32	0x3d1cb2f0	0.038256586
33	0x3e9a3da2	0.30125147
34	0x3becf347	0.0072311494
35	0xbcc40746	-0.02392925
36	0xbbc6daf3	-0.0060685812
37	0xbe1aa3be	-0.15101525
38	0xbde5875b	-0.11207458
39	0xbe92b71b	-0.28655323
40	0xbc954fc7	-0.018226517
41	0xbcef4455	-0.029207388
42	0x3e844cb2	0.25839764
43	0x3e03c4a1	0.12867977
44	0x3dff85d9	0.12476701
45	0xbe0fef36	-0.14056095
46	0xbd555b4d	-0.052089024
47	0x3e21c246	0.15796766
48	0xbebc7a5e	-0.3681211
49	0xbeefa39a	-0.46804506
50	0x3e7c5bed	0.24644442
51	0x3d689a92	0.056788035
52	0x3c8c43c6	0.01712216
53	0x3d46479e	0.048408143
54	0x3e0ec07f	0.13940619
55	0x3f2b2584	0.6685412
56	0x3d3b8f93	0.04579122
57	0xbeab9920	-0.33515263
58	0x3eb01dd5	0.3439776
59	0x3e5cc0e8	0.21557963
60	0xbd9483d0	-0.07251704
61	0xba756e2d	-0.0009362426
62	0xbcd27d29	-0.025694447
63	0x3e9af1fd	0.30262747
64	0x3da5a50d	0.080881216
65	0x3b9c51f7	0.004770513
66	0x3f10ef5e	0.56615245
67	0x3e108bab	0.14115779
68	0x3d7b7cc5	0.061398286
69	0x3d74192b	0.059594315
70	0x3e2b2a2f	0.1671531
71	0x3e2c1cf5	0.16807921
72	0x3dd4335d	0.10361359
73	0xbeb27d00	-0.34860992
74	0xbe2ea708	-0.17055905
75	0xbe920557	-0.285197
76	0xbdaa57a2	-0.08317496
77	0x3db284ae	0.08716713
78	0x3e1e361f	0.15450333
79	0xbb2198dd	-0.0024657764
80	0xbe170c53	-0.14750795
81	0xbe2fa629	-0.17153229
82	0xbdd5c474	-0.10437861
83	0xbe052d0b	-0.13005464
84	0xbe019d8f	-0.1265776
85	0xbd9dde6e	-0.07708441
86	0xbe2038a2	-0.15646604
87	0xbdd8debb	-0.105893575
88	0xbc0897af	-0.008336945
89	0xbd896efe	-0.06710623
90	0xbee4f1f2	-0.4471584
91	0x3d43c777	0.047797646
92	0xbd791017	-0.06080636
93	0x3e08ce87	0.13360034
94	0x3d7f498b	0.062325995
95	0x3c8a19f9	0.016858088
96	0x3e0da465	0.13832243
97	0xbdb771f7	-0.08957284
98	0xbd5e42be	-0.05426287
99	0xbeb34abd	-0.35017958
100	0xbeaf2d90	-0.3421445
101	0xbd306e83	-0.043074142
102	0xbed2bcc6	-0.41159648
103	0x3d91115b	0.070833884
104	0xbe2757bc	-0.16342062
105	0xbd04f543	-0.032460462
106	0x3d18954d	0.03725176
107	0xbc39e5fb	-0.0113463355
108	0x3ed4cd0e	0.41562694
109	0xbdf273b3	-0.11838474
110	0x3daa3389	0.08310611
111	0x3de2f397	0.11081617
112	0x3e1d29c8	0.1534797
113	0x3bd74589	0.0065695685
114	0xbed26e05	-0.41099563
115	0x3bb2b69b	0.005453897
116	0xbe16a0ed	-0.14709826
117	0xbdea8afe	-0.11452292
118	0xbd89d601	-0.06730271
119	0xbc2d4a55	-0.010576804
120	0xbe993592	-0.29923683
121	0x3dd9c0c0	0.10632467
122	0xbe7a86e1	-0.24465515
123	0xbda5a532	-0.08088149
124	0xbe2e756e	-0.17036983
125	0xbd784bdd	-0.060619224
126	0x3d7d8793	0.06189687
127	0xbd059aaa	-0.032618202
128	0x3cd92e1d	0.026511246
129	0xbe480887	-0.19534503
130	0x3e304d79	0.17217053
131	0x3c91ee34	0.01781378
132	0xbd5bc8f3	-0.053658437
133	0xbb16b002	-0.0022993092
134	0xbd9d7dad	-0.076899864
135	0xbe95d7e1	-0.29266265
136	0xbec3415f	-0.38135812
137	0xbde694d6	-0.11258857
138	0xbe8cce10	-0.27500963
139	0xbdd4f1e9	-0.10397703
140	0x3cf4f4ee	0.029901948
141	0xbdaecf58	-0.085356414
142	0x3a2a281b	0.00064909615
143	0x3d8a5ae8	0.0675562
144	0xbd8ceac0	-0.068807125
145	0x3cb7f2b3	0.022454595
146	0xbe198553	-0.14992265
147	0xbe5c498f	-0.21512435
148	0xbe0a06ff	-0.13479231
149	0xbcc9aa26	-0.024617266
150	0x3c1c87e8	0.009553887
151	0xbe078527	-0.13234387
152	0x3f24b512	0.6433879
153	0xbe38f57f	-0.180624
154	0xbcafbdd4	-0.021452822
155	0xbe2f0a96	-0.17093882
156	0xbe1e3a37	-0.15451895
157	0xbdc95cae	-0.0983213
158	0xbc02e982	-0.007990243
159	0xbc893972	-0.016751025
160	0xbd478fb4	-0.04872103
161	0xbd906a54	-0.070515305
162	0xbcd21094	-0.02564267
163	0x3d9cd138	0.07657093
164	0xbd9a3957	-0.07530468
165	0xbd995345	-0.074865855
166	0x3da8769b	0.08225747
167	0x3ed5ab6e	0.41732353
168	0x3e125b91	0.14292742
169	0xbf06729c	-0.5251863
170	0x3dcbadde	0.09945272
171	0x3d5f2d1c	0.05448638
172	0xbcb8f485	-0.022577533
173	0x3b6bce7a	0.0035981224
174	0x3e2e4c32	0.17021254
175	0xbcc19aa5	-0.02363331
176	0x3d527a65	0.051386256
177	0xbe5d62bc	-0.21619695
178	0xbe56e23f	-0.20984744
179	0xbde79776	-0.11308186
180	0x3d48cffa	0.049026467
181	0xbb673f8a	-0.0035285675
182	0xbe8b36b0	-0.2719016
183	0xbd626d89	-0.055280242
184	0x3e82c148	0.25538087
185	0x3dd4856a	0.10377009
186	0xbeb134e6	-0.3461067
187	0xbe3d7038	-0.1849984
188	0xbeaf1a95	-0.34199968
189	0x3c209baa	0.009802738
190	0x3c1cc1a4	0.009567652
191	0x3dda479e	0.10658191
192	0xbc19ee9b	-0.009395267
193	0x3d96dc0e	0.07366191
194	0xbf5d3bd9	-0.86419445
195	0xbdcf8e38	-0.10134548
196	0xbe2f8237	-0.17139517
197	0x3e329dcd	0.17443009
198	0x3d243be5	0.040096182
199	0xbdd2e865	-0.10298232
200	0xbcdf5e94	-0.027266778
201	0xbdad8461	-0.08472515
202	0x3dc4684e	0.09590207
203	0xbd5e7a08	-0.054315597
204	0xbe99d036	-0.30041665
205	0x3de830f9	0.11337466
206	0x3e2e50f5	0.1702307
207	0x3d99479b	0.07484361
208	0x3dd78a96	0.1052448
209	0x3b1bfe76	0.0023802794
210	0xbee7ca89	-0.4527171
211	0xbe5ad525	-0.2137037
212	0xbe2a0af0	-0.16605735
213	0xbcf5822d	-0.0299693
214	0xbe905b06	-0.28194445
215	0xbeb1a495	-0.3469588
216	0xbbbb5ab9	-0.005717602
217	0xbd94311d	-0.0723593
218	0x3ce2bfc1	0.027679326
219	0xbda142c9	-0.078740664
220	0xbe2a01c0	-0.1660223
221	0x3e05d965	0.1307121
222	0x3d1deaa0	0.038553834
223	0xbd83ba33	-0.06431999
224	0x3f19c7da	0.60070574
225	0x3a925dcc	0.001116687
226	0x3c00872a	0.007844726
227	0x3d800104	0.06250194
228	0xbd2e54c4	-0.042561308
229	0x3d234597	0.039861288
230	0x3cdaf333	0.026727295
231	0x3cdb181a	0.026744891
232	0xbd83679c	-0.06416246
233	0x3b987c51	0.0046534915
234	0x3d110aad	0.03541057
235	0xbd7e50a0	-0.06208861
236	0x3d81cdec	0.063381046
237	0x3d81867e	0.063244805
238	0xbd493f6c	-0.04913275
239	0x3e870a65	0.26375118
240	0x3e79e257	0.24402748
241	0xbdcd4f4e	-0.10024892
242	0xbe77f03a	-0.24212733
243	0xbb1ba2f3	-0.0023748248
244	0xbe8da131	-0.27662042
245	0x3e764fb8	0.24053848
246	0xbcfa199b	-0.030529788
247	0x3e52cae4	0.20585209
248	0xbe07f30c	-0.13276309
249	0xbe88390c	-0.26606023
250	0x3e918ef1	0.28429368
251	0x3d955db7	0.07293265
252	0x3e283520	0.16426516
253	0x3daaf529	0.08347542
254	0xbbefb1a8	-0.0073148794
255	0x3daa7eb6	0.083249494

decoder.0.bias f4 [8]
0	0x3ed3e91f	0.41388795
1	0xbee2bfe0	-0.44287014
2	0x3e42c114	0.19018966
3	0x3e58129d	0.2110085
4	0x3e896b9d	0.26839915
5	0x3dd32b71	0.1031102
6	0x3ee12bfa	0.43978864
7	0x3e8eb0a5	0.27869144

decoder.2.weight f4 [8]
0	0x3f930290	1.1485157
1	0x3f4f2889	0.80921227
2	0x3f6e72e8	0.93144083
3	0x3f668071	0.90039736
4	0x3f8d2eb9	1.1029884
5	0x3f8a402c	1.0800834
6	0x3f59a36f	0.85015005
7	0x3f5d05fc	0.86337256

decoder.2.bias f4 [8]
0	0x3da830ab	0.08212408
1	0xbf13232c	-0.57475543
2	0xbbf25f26	-0.0073965965
3	0x3dc8550f	0.09781849
4	0xbb5755b3	-0.0032857477
5	0x3d6b5e26	0.057462834
6	0x3e0b6495	0.13612588
7	0x3df7ceb6	0.12099974

decoder.2.running_mean f4 [8]
0	0x3ef7e21b	0.48414692
1	0x00000004	6e-45
2	0x3e8950d7	0.26819488
3	0x3e41049b	0.18849413
4	0x3e52345e	0.20527789
5	0x3e637d85	0.2221585
6	0x3eb7bd5b	0.35886654
7	0x3e5c7601	0.2152939

decoder.2.running_var f4 [8]
0	0x3dd33700	0.10313225
1	0x00000004	6e-45
2	0x3d342e79	0.043989632
3	0x3d3822e0	0.044955134
4	0x3d295570	0.041341245
5	0x3d5c6730	0.053809345
6	0x3d02849d	0.03186475
7	0x3d0cef0a	0.034407653

decoder.3.weight f4 [8, 16, 2, 2]
0	0xbc0c8ba8	-0.0085782185
1	0xbe2720fd	-0.16321178
2	0xbdfe3f10	-0.12414372
3	0xbdcdfa64	-0.10057524
4	0xbe951dff	-0.29124448
5	0xbe5c7d57	-0.21532188
6	0xbebbf43b	-0.3670977
7	0xbefa1cf5	-0.48850217
8	0xbe136b43	-0.14396386
9	0xbc6fa15b	-0.0146258725
10	0x3ea6db24	0.32589066
11	0xbdc43e9c	-0.09582254
12	0x3e1602c7	0.14649497
13	0xbef44416	-0.47708195
14	0xbed25b0b	-0.41085085
15	0xbf10941d	-0.56476
16	0xbe433d6d	-0.19066401
17	0x3e883b66	0.26607817
18	0x3e0ecf9e	0.13946387
19	0x3e85a833	0.26104888
20	0x3e5b4e87	0.21416675
21	0x3b7d7d75	0.0038679515
22	0xbe269f52	-0.16271713
23	0x3e2017dc	0.15634102
24	0x3ec1a9bc	0.3782481
25	0x3e548787	0.20754825
26	0xbc14a3e5	-0.009072279
27	0xbeb69f93	-0.3566862
28	0xbea5b0b9	-0.3236139
29	0x3d222a35	0.039591033
30	0xbef8220c	-0.48463476
31	0xbe7cd205	-0.24689491
32	0xbdf3b82a	-0.11900361
33	0xbd82d0a9	-0.06387455
34	0xbec7b0a2	-0.39001948
35	0xbdb1853f	-0.08667993
36	0x3de8252e	0.113352165
37	0xbe6082af	-0.21924852
38	0xbcf1ae31	-0.029502006
39	0xbe22c5b1	-0.15895726
40	0xbd5e32fa	-0.054247834
41	0xbda8e7af	-0.08247315
42	0xbd8c0f8e	-0.06838904
43	0xbdc4c7f2	-0.09608449
44	0xbaff6ef0	-0.0019488018
45	0xbe1cb3c0	-0.15302944
46	0xbc531e0d	-0.012885583
47	0xbe045e58	-0.12926614
48	0x3e65c738	0.22439277
49	0xbe9f7d37	-0.3115022
50	0x3df93ba3	0.12169578
51	0xbd72c451	-0.059269253
52	0x3c6562c6	0.0140006
53	0x3d707c31	0.05871219
54	0xbd0ec58f	-0.034856375
55	0xbd214276	-0.039370023
56	0x3c6503e7	0.013977981
57	0xbd81318c	-0.063082784
58	0xbe8c28a5	-0.2737476
59	0xbd18f9f8	-0.037347764
60	0xbd288d17	-0.04115018
61	0x3dff348c	0.124611944
62	0x3e2b0d1f	0.16704224
63	0xbf16db43	-0.58928317
64	0x3d1d34af	0.03838032
65	0x3e7aa654	0.24477512
66	0xbd716ecc	-0.058943555
67	0xbddb100c	-0.1069642
68	0xbe624e55	-0.22100194
69	0x3eb71608	0.35758996
70	0x3e5ac0f5	0.2136267
71	0xbea8762f	-0.32902667
72	0x3e0407b5	0.12893565
73	0xbe841b53	-0.25802097
74	0x3cb6ee2c	0.022330366
75	0xbde8a990	-0.113604665
76	0x3eaf2bd6	0.34213132
77	0xbedf19ce	-0.43574375
78	0x3ecaa672	0.39580113
79	0xbefdcbc9	-0.49569538
80	0x3f05888f	0.52161497
81	0xbe8122ad	-0.25221768
82	0xbe4ffbb6	-0.20310864
83	0x3de3da28	0.111255944
84	0x3eeec708	0.46636224
85	0x3c25b57c	0.01011407
86	0x3d7bf4e0	0.061512828
87	0xbe8c646b	-0.27420363
88	0x3e04706f	0.12933515
89	0x3e49c5be	0.19704339
90	0x3cbefcf2	0.023313973
91	0xbeaf1d7c	-0.34202182
92	0xbcb561c7	-0.02214135
93	0xbf06576a	-0.52477133
94	0x3d8750fd	0.06607244
95	0x3f00147c	0.50031257
96	0xbdf1004e	-0.11767636
97	0xbdb7eeee	-0.08981119
98	0xbe80bb0a	-0.251427
99	0x3e64eb27	0.22355329
100	0xbcb411e7	-0.021981193
101	0x3e88597a	0.26630765
102	0xbd4ba877	-0.049721207
103	0xbe74ee58	-0.23919046
104	0x3d235803	0.039878856
105	0xbc3e934c	-0.011631798
106	0xbc8a50c9	-0.016884224
107	0xbb6a996b	-0.003579701
108	0x3d99c3b7	0.07508033
109	0x3eeae201	0.45875552
110	0xbe48f3eb	-0.19624297
111	0x3ddd8058	0.10815495
112	0x3c5c6919	0.013452792
113	0x3e0dd41b	0.13850443
114	0x3dc18a57	0.09450214
115	0x3d541e43	0.051786672
116	0x3e7273cf	0.2367699
117	0xbe1ed0f5	-0.15509398
118	0xbe4401b6	-0.19141278
119	0xbe44247c	-0.19154543
120	0xbe33a003	-0.17541508
121	0xbd987c85	-0.07445625
122	0x3e1b8d71	0.15190674
123	0xbd933c63	-0.07189252
124	0xbe38a4ac	-0.18031567
125	0xbb866ad1	-0.004102089
126	0xbeb72f2c	-0.35778177
127	0xbd8097f5	-0.062789835
128	0xbdb1bcc0	-0.08678579
129	0xbe9e827f	-0.30958936
130	0xbe5a7a47	-0.21335708
131	0xbe3e54af	-0.18586992
132	0x3cf0968a	0.029368658
133	0xbbcaa666	-0.006184387
134	0x3cedac88	0.029012933
135	0xbe7ad2ba	-0.24494448
136	0x3e736d4a	0.23772159
137	0xbe5c8ab7	-0.2153729
138	0x3d6ac771	0.05731911
139	0xbea7e571	-0.32792237
140	0xbe16631a	-0.14686242
141	0x3c74e902	0.0149481315
142	0xbdc3463b	-0.0953488
143	0x3de4de5c	0.11175224
144	0xbc5c580e	-0.013448728
145	0xbeb74cb8	-0.3580072
146	0x3e10c5be	0.14137933
147	0xbd8c2c24	-0.06844357
148	0x3d5dd6cf	0.054159936
149	0xbd9babb7	-0.076011114
150	0xbdb01646	-0.08597998
151	0x3e325b16	0.17417559
152	0xbe04e1b7	-0.12976728
153	0xbe566e40	-0.20940495
154	0x3f03a9f2	0.5143119
155	0xbe475535	-0.19466098
156	0xbeaef6f2	-0.3417278
157	0xbe19f5cf	-0.15035175
158	0xbe0f7828	-0.1401068
159	0x3c90ac98	0.017660424
160	0x3dde1bf5	0.10845176
161	0x3e361873	0.17782764
162	0xbe57e286	-0.21082506
163	0x3e4e8799	0.20168914
164	0xbe02b3ae	-0.12763855
165	0x3ced6129	0.028976994
166	0xbd35659f	-0.044286367
167	0x3ebbe6ae	0.36699432
168	0xbd35da07	-0.04439738
169	0xbd05d476	-0.03267332
170	0xbca38672	-0.01996157
171	0xbc25519b	-0.010090257
172	0x3dc29e85	0.095028915
173	0x3d89c8a5	0.06727723
174	0x3d4e5026	0.050369404
175	0x3e24f6ca	0.16109768
176	0x3e469677	0.19393335
177	0xbe903d41	-0.28171733
178	0x3df58a07	0.11989217
179	0xbea8361a	-0.32853776
180	0x3db0fcb4	0.08641949
181	0xbe0b1843	-0.13583474
182	0xbec11626	-0.3771221
183	0xbeb3345f	-0.35000893
184	0x3e88f3b2	0.26748425
185	0xbbce8f2f	-0.00630369
186	0x3e5e4f9c	0.21710056
187	0x3e67f0ae	0.22650406
188	0xbddcc124	-0.10779026
189	0xbc4200b6	-0.01184099
190	0xbd03690b	-0.0320826
191	0xbe14d184	-0.14533049
192	0xbdacd533	-0.08439102
193	0xbf215588	-0.63021135
194	0xbe861e20	-0.2619486
195	0x3c24d41d	0.010060337
196	0x3e2aa0c0	0.16662884
197	0xbe9675f1	-0.29386857
198	0x3e25735b	0.16157286
199	0xbe9421d5	-0.28932062
200	0xbf0caf31	-0.5495482
201	0x3d6e6303	0.058199894
202	0x3df02b1f	0.11726975
203	0xbd70c249	-0.058779035
204	0xbe11a635	-0.14223559
205	0xbd85be9f	-0.06530499
206	0x3dd7e7b2	0.10542239
207	0x3df7b56e	0.12095152
208	0x3c336695	0.01094975
209	0x3df1f80d	0.1181489
210	0xbe2ca4f9	-0.16859807
211	0x3e56393b	0.20920269
212	0xbe9b4352	-0.303248
213	0x3c049be7	0.008093811
214	0xbd0a1f95	-0.033721525
215	0x3e1959a1	0.14975597
216	0x3d957585	0.07297806
217	0x3e8c64ce	0.27420658
218	0xbe2c4413	-0.16822843
219	0xbcbad11e	-0.022804793
220	0xbcdf7789	-0.027278678
221	0xbe5665b9	-0.20937242
222	0xbe37d2e5	-0.17951544
223	0x3e46ba90	0.19407105
224	0x3e63f6f0	0.22262168
225	0xbe0fbea9	-0.14037575
226	0xbee9e348	-0.45681214
227	0xbe8a2fec	-0.26989686
228	0xbe3984db	-0.18117087
229	0x3e0715ce	0.13191912
230	0x3eb83ec4	0.35985386
231	0x3e2c9d16	0.16856799
232	0xbcfc8466	-0.030824851
233	0xbc8e4541	-0.017367007
234	0x3c607b81	0.013701321
235	0x3d3a200f	0.04544073
236	0xbd6f5c33	-0.058437537
237	0xbe3917bd	-0.18075462
238	0xbe6ec39d	-0.23316808
239	0xbdf6b1c6	-0.12045626
240	0xbe0dec01	-0.1385956
241	0x3e15ce3b	0.14629452
242	0xbdcb6565	-0.09931449
243	0x3e554a20	0.20829058
244	0xbdc80581	-0.09766675
245	0x3ea4d73f	0.3219547
246	0xbd8d7b72	-0.06908311
247	0x3e1cc789	0.15310492
248	0xbcd061fb	-0.025437346
249	0xbd3ea6c9	-0.046545777
250	0xbde4362d	-0.11143146
251	0xbe57824e	-0.21045801
252	0x3ad3477e	0.0016119329
253	0xbe926b11	-0.2859731
254	0xbe2d80db	-0.16943686
255	0xbdf1000f	-0.11767589

decoder.3.bias f4 [16]
0	0x3be8f228	0.0071089454
1	0xbd52d60a	-0.051473655
2	0x3e4f0a0b	0.20218675
3	0xbd9b8603	-0.0759392
4	0x3de28256	0.11060016
5	0xbe8ef0a6	-0.27917975
6	0x3e76ffa2	0.24120954
7	0xbc5fd34b	-0.013661216
8	0x3ddcd371	0.10782517
9	0x3e973dc2	0.29539305
10	0xbeea3d1d	-0.4574975
11	0xbdd55fe7	-0.104186825
12	0xbe75c7bc	-0.24001974
13	0x3b0117c6	0.0019698008
14	0x3e503935	0.20334323
15	0x3e99154f	0.2989907

decoder.5.weight f4 [16]
0	0x3f6f2c13	0.93426627
1	0x3f6f033a	0.933643
2	0x3f68ddc3	0.9096338
3	0x3f65b6ae	0.8973187
4	0x3f8ad61e	1.0846593
5	0x3f4e6c4e	0.8063401
6	0x3f8279b1	1.0193387
7	0x3f466d54	0.7751057
8	0x3f86ee5a	1.0541489
9	0x3f77891e	0.966936
10	0x3f796f4e	0.9743546
11	0x3f5b9a8c	0.85782695
12	0x3f6e6ada	0.9313179
13	0x3f6ecc6b	0.9328067
14	0x3f7e6cd0	0.99384785
15	0x3f905715	1.1276575

decoder.5.bias f4 [16]
0	0xbd39e5bd	-0.04538511
1	0x3d9a7b2f	0.07543027
2	0xbde27a38	-0.110584676
3	0xbe100d57	-0.14067589
4	0x3d1182f1	0.035525266
5	0xbc38df40	-0.011283696
6	0x3e46e8eb	0.19424789
7	0x3d248878	0.04016921
8	0x3cff5b07	0.031171335
9	0xbb92f055	-0.004484216
10	0xbf3a7c3a	-0.72845805
11	0x3e06375b	0.13107054
12	0x3e540a65	0.2070709
13	0x3e69b0b5	0.22821315
14	0x3d8004ea	0.06250937
15	0x3cf6c172	0.030121539

decoder.5.running_mean f4 [16]
0	0x3e299f37	0.16564642
1	0x3e3fd86d	0.18734904
2	0x3ebcc221	0.3686686
3	0x3e4c883b	0.19973843
4	0x3e96d2ec	0.29457796
5	0x3d934bce	0.07192193
6	0x3ebe5e27	0.37181208
7	0x3e385cd2	0.18004158
8	0x3e9af10f	0.30262038
9	0x3ec12fef	0.37731883
10	0x00000004	6e-45
11	0x3de86197	0.11346739
12	0x3df888ee	0.12135492
13	0x3e8cf7ce	0.2753281
14	0x3eab6ea0	0.33482838
15	0x3efb664c	0.49101484

decoder.5.running_var f4 [16]
0	0x3d6d3d15	0.05791958
1	0x3da4ae62	0.080410734
2	0x3e115314	0.14191848
3	0x3da4dad4	0.08049551
4	0x3e068242	0.13135627
5	0x3d473176	0.048631154
6	0x3e27424b	0.16333883
7	0x3d876572	0.06611146
8	0x3e212b7b	0.15739243
9	0x3e110c7f	0.14164923
10	0x00000004	6e-45
11	0x3d861742	0.06547405
12	0x3d99d32c	0.07510981
13	0x3df9fd4e	0.12206517
14	0x3ded0107	0.115724616
15	0x3e47fd89	0.1953031
